…
args: Namespace(a=True, dc='/hits/basement/nlp/fatimamh/s2s_summarization/data_config_en_sub', e=False, i=False, mc='/hits/basement/nlp/fatimamh/s2s_summarization/model_config_sub', p=False, t=False, v=False)
-----------------------------------------

-----------------------------------------
2020-02-27 13:56:44,080::INFO
main.py::108
prog_start_time: 1582808204.080633
-----------------------------------------

-----------------------------------------
2020-02-27 13:56:44,081::INFO
main.py::110
device: cuda:0
-----------------------------------------

-----------------------------------------
2020-02-27 13:56:47,117::INFO
main.py::123
Model layers: S2SModel(
  (encoder): Encoder(
    (embedding): Embedding(30000, 128)
    (gru): GRU(128, 256)
    (dropout): Dropout(p=0, inplace=False)
  )
  (decoder): AttentionDecoder(
    (embedding): Embedding(10000, 128)
    (embedding_dropout): Dropout(p=0, inplace=False)
    (gru): GRU(128, 256)
    (concat): Linear(in_features=512, out_features=256, bias=True)
    (out): Linear(in_features=256, out_features=10000, bias=True)
    (attn): Attn(
      (attn): Linear(in_features=256, out_features=256, bias=True)
    )
  )
)
-----------------------------------------

-----------------------------------------
2020-02-27 13:58:09,988::INFO
main.py::81
args: Namespace(a=True, dc='/hits/basement/nlp/fatimamh/s2s_summarization/data_config_en_sub', e=False, i=False, mc='/hits/basement/nlp/fatimamh/s2s_summarization/model_config_sub', p=False, t=False, v=False)
-----------------------------------------

-----------------------------------------
2020-02-27 13:58:09,992::INFO
main.py::108
prog_start_time: 1582808289.9921567
-----------------------------------------

-----------------------------------------
2020-02-27 13:58:09,992::INFO
main.py::110
device: cuda:0
-----------------------------------------

-----------------------------------------
2020-02-27 13:58:13,028::INFO
main.py::123
Model layers: S2SModel(
  (encoder): Encoder(
    (embedding): Embedding(30000, 128)
    (gru): GRU(128, 256)
    (dropout): Dropout(p=0, inplace=False)
  )
  (decoder): AttentionDecoder(
    (embedding): Embedding(10000, 128)
    (embedding_dropout): Dropout(p=0, inplace=False)
    (gru): GRU(128, 256)
    (concat): Linear(in_features=512, out_features=256, bias=True)
    (out): Linear(in_features=256, out_features=10000, bias=True)
    (attn): Attn(
      (attn): Linear(in_features=256, out_features=256, bias=True)
    )
  )
)
-----------------------------------------

-----------------------------------------
2020-02-27 13:58:13,118::DEBUG
font_manager.py::1259
findfont: Matching :family=sans-serif:style=normal:variant=normal:weight=normal:stretch=normal:size=10.0.
-----------------------------------------

-----------------------------------------
2020-02-27 13:58:13,119::DEBUG
…
args: Namespace(a=True, dc='/hits/basement/nlp/fatimamh/s2s_summarization/data_config_en_sub', e=False, i=False, mc='/hits/basement/nlp/fatimamh/s2s_summarization/model_config_sub', p=False, t=False, v=False)
-----------------------------------------

-----------------------------------------
2020-02-27 14:22:04,914::INFO
main.py::108
prog_start_time: 1582809724.914269
-----------------------------------------

-----------------------------------------
2020-02-27 14:22:04,915::INFO
main.py::110
device: cuda:0
-----------------------------------------

-----------------------------------------
2020-02-27 14:22:07,969::INFO
main.py::123
Model layers: S2SModel(
  (encoder): Encoder(
    (embedding): Embedding(30000, 128)
    (gru): GRU(128, 256)
    (dropout): Dropout(p=0, inplace=False)
  )
  (decoder): AttentionDecoder(
    (embedding): Embedding(10000, 128)
    (embedding_dropout): Dropout(p=0, inplace=False)
    (gru): GRU(128, 256)
    (concat): Linear(in_features=512, out_features=256, bias=True)
    (out): Linear(in_features=256, out_features=10000, bias=True)
    (attn): Attn(
      (attn): Linear(in_features=256, out_features=256, bias=True)
    )
  )
)
-----------------------------------------

-----------------------------------------
2020-02-27 14:28:40,405::DEBUG
font_manager.py::1259
findfont: Matching :family=sans-serif:style=normal:variant=normal:weight=normal:stretch=normal:size=10.0.
-----------------------------------------

-----------------------------------------
2020-02-27 14:28:40,406::DEBUG
…
args: Namespace(a=True, dc='/hits/basement/nlp/fatimamh/s2s_summarization/data_config_en_sub', e=False, i=False, mc='/hits/basement/nlp/fatimamh/s2s_summarization/model_config_sub', p=False, t=False, v=False)
-----------------------------------------

-----------------------------------------
2020-02-27 15:01:02,452::INFO
main.py::109
prog_start_time: 1582812062.4523716
-----------------------------------------

-----------------------------------------
2020-02-27 15:01:02,453::INFO
main.py::111
device: cuda:0
-----------------------------------------

-----------------------------------------
2020-02-27 15:01:05,655::INFO
main.py::124
Model layers: S2SModel(
  (encoder): Encoder(
    (embedding): Embedding(30000, 128)
    (gru): GRU(128, 256)
    (dropout): Dropout(p=0, inplace=False)
  )
  (decoder): AttentionDecoder(
    (embedding): Embedding(10000, 128)
    (embedding_dropout): Dropout(p=0, inplace=False)
    (gru): GRU(128, 256)
    (concat): Linear(in_features=512, out_features=256, bias=True)
    (out): Linear(in_features=256, out_features=10000, bias=True)
    (attn): Attn(
      (attn): Linear(in_features=256, out_features=256, bias=True)
    )
  )
)
-----------------------------------------

-----------------------------------------
2020-02-27 15:03:30,481::INFO
main.py::82
args: Namespace(a=True, dc='/hits/basement/nlp/fatimamh/s2s_summarization/data_config_en_sub', e=False, i=False, mc='/hits/basement/nlp/fatimamh/s2s_summarization/model_config_sub', p=False, t=False, v=False)
-----------------------------------------

-----------------------------------------
2020-02-27 15:03:30,485::INFO
main.py::109
prog_start_time: 1582812210.4856973
-----------------------------------------

-----------------------------------------
2020-02-27 15:03:30,486::INFO
main.py::111
device: cuda:0
-----------------------------------------

-----------------------------------------
2020-02-27 15:03:33,699::INFO
main.py::124
Model layers: S2SModel(
  (encoder): Encoder(
    (embedding): Embedding(30000, 128)
    (gru): GRU(128, 256)
    (dropout): Dropout(p=0, inplace=False)
  )
  (decoder): AttentionDecoder(
    (embedding): Embedding(10000, 128)
    (embedding_dropout): Dropout(p=0, inplace=False)
    (gru): GRU(128, 256)
    (concat): Linear(in_features=512, out_features=256, bias=True)
    (out): Linear(in_features=256, out_features=10000, bias=True)
    (attn): Attn(
      (attn): Linear(in_features=256, out_features=256, bias=True)
    )
  )
)
-----------------------------------------

-----------------------------------------
2020-02-27 15:07:17,777::INFO
main.py::82
args: Namespace(a=True, dc='/hits/basement/nlp/fatimamh/s2s_summarization/data_config_en_sub', e=False, i=False, mc='/hits/basement/nlp/fatimamh/s2s_summarization/model_config_sub', p=False, t=False, v=False)
-----------------------------------------

-----------------------------------------
2020-02-27 15:07:17,780::INFO
main.py::109
prog_start_time: 1582812437.780604
-----------------------------------------

-----------------------------------------
2020-02-27 15:07:17,781::INFO
main.py::111
device: cuda:0
-----------------------------------------

-----------------------------------------
2020-02-27 15:07:21,009::INFO
main.py::124
Model layers: S2SModel(
  (encoder): Encoder(
    (embedding): Embedding(30000, 128)
    (gru): GRU(128, 256)
    (dropout): Dropout(p=0, inplace=False)
  )
  (decoder): AttentionDecoder(
    (embedding): Embedding(10000, 128)
    (embedding_dropout): Dropout(p=0, inplace=False)
    (gru): GRU(128, 256)
    (concat): Linear(in_features=512, out_features=256, bias=True)
    (out): Linear(in_features=256, out_features=10000, bias=True)
    (attn): Attn(
      (attn): Linear(in_features=256, out_features=256, bias=True)
    )
  )
)
-----------------------------------------

-----------------------------------------
2020-02-27 15:09:01,399::DEBUG
font_manager.py::1259
findfont: Matching :family=sans-serif:style=normal:variant=normal:weight=normal:stretch=normal:size=10.0.
-----------------------------------------

-----------------------------------------
2020-02-27 15:09:01,401::DEBUG
…
args: Namespace(a=True, dc='/hits/basement/nlp/fatimamh/s2s_summarization/data_config_en_sub', e=False, i=False, mc='/hits/basement/nlp/fatimamh/s2s_summarization/model_config_sub', p=False, t=False, v=False)
-----------------------------------------

-----------------------------------------
2020-02-27 15:45:58,387::INFO
main.py::109
prog_start_time: 1582814758.3877647
-----------------------------------------

-----------------------------------------
2020-02-27 15:45:58,388::INFO
main.py::111
device: cuda:0
-----------------------------------------

-----------------------------------------
2020-02-27 15:46:01,612::INFO
main.py::124
Model layers: S2SModel(
  (encoder): Encoder(
    (embedding): Embedding(30000, 128)
    (gru): GRU(128, 256)
    (dropout): Dropout(p=0, inplace=False)
  )
  (decoder): AttentionDecoder(
    (embedding): Embedding(10000, 128)
    (embedding_dropout): Dropout(p=0, inplace=False)
    (gru): GRU(128, 256)
    (concat): Linear(in_features=512, out_features=256, bias=True)
    (out): Linear(in_features=256, out_features=10000, bias=True)
    (attn): Attn(
      (attn): Linear(in_features=256, out_features=256, bias=True)
    )
  )
)
-----------------------------------------

-----------------------------------------
2020-02-27 15:52:18,618::INFO
main.py::82
args: Namespace(a=True, dc='/hits/basement/nlp/fatimamh/s2s_summarization/data_config_en_sub', e=False, i=False, mc='/hits/basement/nlp/fatimamh/s2s_summarization/model_config_sub', p=False, t=False, v=False)
-----------------------------------------

-----------------------------------------
2020-02-27 15:52:18,621::INFO
main.py::109
prog_start_time: 1582815138.6212425
-----------------------------------------

-----------------------------------------
2020-02-27 15:52:18,621::INFO
main.py::111
device: cuda:0
-----------------------------------------

-----------------------------------------
2020-02-27 15:52:21,856::INFO
main.py::124
Model layers: S2SModel(
  (encoder): Encoder(
    (embedding): Embedding(30000, 128)
    (gru): GRU(128, 256)
    (dropout): Dropout(p=0, inplace=False)
  )
  (decoder): AttentionDecoder(
    (embedding): Embedding(10000, 128)
    (embedding_dropout): Dropout(p=0, inplace=False)
    (gru): GRU(128, 256)
    (concat): Linear(in_features=512, out_features=256, bias=True)
    (out): Linear(in_features=256, out_features=10000, bias=True)
    (attn): Attn(
      (attn): Linear(in_features=256, out_features=256, bias=True)
    )
  )
)
-----------------------------------------

-----------------------------------------
2020-02-27 15:53:07,390::INFO
main.py::82
args: Namespace(a=True, dc='/hits/basement/nlp/fatimamh/s2s_summarization/data_config_en_sub', e=False, i=False, mc='/hits/basement/nlp/fatimamh/s2s_summarization/model_config_sub', p=False, t=False, v=False)
-----------------------------------------

-----------------------------------------
2020-02-27 15:53:07,394::INFO
main.py::109
prog_start_time: 1582815187.3939855
-----------------------------------------

-----------------------------------------
2020-02-27 15:53:07,394::INFO
main.py::111
device: cuda:0
-----------------------------------------

-----------------------------------------
2020-02-27 15:53:10,641::INFO
main.py::124
Model layers: S2SModel(
  (encoder): Encoder(
    (embedding): Embedding(30000, 128)
    (gru): GRU(128, 256)
    (dropout): Dropout(p=0, inplace=False)
  )
  (decoder): AttentionDecoder(
    (embedding): Embedding(10000, 128)
    (embedding_dropout): Dropout(p=0, inplace=False)
    (gru): GRU(128, 256)
    (concat): Linear(in_features=512, out_features=256, bias=True)
    (out): Linear(in_features=256, out_features=10000, bias=True)
    (attn): Attn(
      (attn): Linear(in_features=256, out_features=256, bias=True)
    )
  )
)
-----------------------------------------

-----------------------------------------
2020-02-27 15:56:31,747::INFO
main.py::82
args: Namespace(a=True, dc='/hits/basement/nlp/fatimamh/s2s_summarization/data_config_en_sub', e=False, i=False, mc='/hits/basement/nlp/fatimamh/s2s_summarization/model_config_sub', p=False, t=False, v=False)
-----------------------------------------

-----------------------------------------
2020-02-27 15:56:31,749::INFO
main.py::109
prog_start_time: 1582815391.7496893
-----------------------------------------

-----------------------------------------
2020-02-27 15:56:31,750::INFO
main.py::111
device: cuda:0
-----------------------------------------

-----------------------------------------
2020-02-27 15:56:35,029::INFO
main.py::124
Model layers: S2SModel(
  (encoder): Encoder(
    (embedding): Embedding(30000, 128)
    (gru): GRU(128, 256)
    (dropout): Dropout(p=0, inplace=False)
  )
  (decoder): AttentionDecoder(
    (embedding): Embedding(10000, 128)
    (embedding_dropout): Dropout(p=0, inplace=False)
    (gru): GRU(128, 256)
    (concat): Linear(in_features=512, out_features=256, bias=True)
    (out): Linear(in_features=256, out_features=10000, bias=True)
    (attn): Attn(
      (attn): Linear(in_features=256, out_features=256, bias=True)
    )
  )
)
-----------------------------------------

-----------------------------------------
2020-02-27 16:11:26,677::INFO
main.py::82
args: Namespace(a=True, dc='/hits/basement/nlp/fatimamh/s2s_summarization/data_config_en_sub', e=False, i=False, mc='/hits/basement/nlp/fatimamh/s2s_summarization/model_config_sub', p=False, t=False, v=False)
-----------------------------------------

-----------------------------------------
2020-02-27 16:11:26,681::INFO
main.py::109
prog_start_time: 1582816286.6816235
-----------------------------------------

-----------------------------------------
2020-02-27 16:11:26,682::INFO
main.py::111
device: cuda:0
-----------------------------------------

-----------------------------------------
2020-02-27 16:11:29,903::INFO
main.py::124
Model layers: S2SModel(
  (encoder): Encoder(
    (embedding): Embedding(30000, 128)
    (gru): GRU(128, 256)
    (dropout): Dropout(p=0, inplace=False)
  )
  (decoder): AttentionDecoder(
    (embedding): Embedding(10000, 128)
    (embedding_dropout): Dropout(p=0, inplace=False)
    (gru): GRU(128, 256)
    (concat): Linear(in_features=512, out_features=256, bias=True)
    (out): Linear(in_features=256, out_features=10000, bias=True)
    (attn): Attn(
      (attn): Linear(in_features=256, out_features=256, bias=True)
    )
  )
)
-----------------------------------------

-----------------------------------------
2020-02-27 16:15:31,296::INFO
main.py::82
args: Namespace(a=True, dc='/hits/basement/nlp/fatimamh/s2s_summarization/data_config_en_sub', e=False, i=False, mc='/hits/basement/nlp/fatimamh/s2s_summarization/model_config_sub', p=False, t=False, v=False)
-----------------------------------------

-----------------------------------------
2020-02-27 16:15:31,300::INFO
main.py::109
prog_start_time: 1582816531.3003047
-----------------------------------------

-----------------------------------------
2020-02-27 16:15:31,301::INFO
main.py::111
device: cuda:0
-----------------------------------------

-----------------------------------------
2020-02-27 16:15:34,529::INFO
main.py::124
Model layers: S2SModel(
  (encoder): Encoder(
    (embedding): Embedding(30000, 128)
    (gru): GRU(128, 256)
    (dropout): Dropout(p=0, inplace=False)
  )
  (decoder): AttentionDecoder(
    (embedding): Embedding(10000, 128)
    (embedding_dropout): Dropout(p=0, inplace=False)
    (gru): GRU(128, 256)
    (concat): Linear(in_features=512, out_features=256, bias=True)
    (out): Linear(in_features=256, out_features=10000, bias=True)
    (attn): Attn(
      (attn): Linear(in_features=256, out_features=256, bias=True)
    )
  )
)
-----------------------------------------

-----------------------------------------
2020-02-27 16:17:14,606::DEBUG
font_manager.py::1259
findfont: Matching :family=sans-serif:style=normal:variant=normal:weight=normal:stretch=normal:size=10.0.
-----------------------------------------

-----------------------------------------
2020-02-27 16:17:14,607::DEBUG
…
args: Namespace(a=True, dc='/hits/basement/nlp/fatimamh/s2s_summarization/data_config_en_sub', e=False, i=False, mc='/hits/basement/nlp/fatimamh/s2s_summarization/model_config_sub', p=False, t=False, v=False)
-----------------------------------------

-----------------------------------------
2020-02-27 16:18:04,670::INFO
main.py::109
prog_start_time: 1582816684.670196
-----------------------------------------

-----------------------------------------
2020-02-27 16:18:04,670::INFO
main.py::111
device: cuda:0
-----------------------------------------

-----------------------------------------
2020-02-27 16:18:07,932::INFO
main.py::124
Model layers: S2SModel(
  (encoder): Encoder(
    (embedding): Embedding(30000, 128)
    (gru): GRU(128, 256)
    (dropout): Dropout(p=0, inplace=False)
  )
  (decoder): AttentionDecoder(
    (embedding): Embedding(10000, 128)
    (embedding_dropout): Dropout(p=0, inplace=False)
    (gru): GRU(128, 256)
    (concat): Linear(in_features=512, out_features=256, bias=True)
    (out): Linear(in_features=256, out_features=10000, bias=True)
    (attn): Attn(
      (attn): Linear(in_features=256, out_features=256, bias=True)
    )
  )
)
-----------------------------------------

-----------------------------------------
2020-02-27 16:19:34,629::INFO
main.py::82
args: Namespace(a=True, dc='/hits/basement/nlp/fatimamh/s2s_summarization/data_config_en_sub', e=False, i=False, mc='/hits/basement/nlp/fatimamh/s2s_summarization/model_config_sub', p=False, t=False, v=False)
-----------------------------------------

-----------------------------------------
2020-02-27 16:19:34,634::INFO
main.py::109
prog_start_time: 1582816774.6340394
-----------------------------------------

-----------------------------------------
2020-02-27 16:19:34,634::INFO
main.py::111
device: cuda:0
-----------------------------------------

-----------------------------------------
2020-02-27 16:19:37,877::INFO
main.py::124
Model layers: S2SModel(
  (encoder): Encoder(
    (embedding): Embedding(30000, 128)
    (gru): GRU(128, 256)
    (dropout): Dropout(p=0, inplace=False)
  )
  (decoder): AttentionDecoder(
    (embedding): Embedding(10000, 128)
    (embedding_dropout): Dropout(p=0, inplace=False)
    (gru): GRU(128, 256)
    (concat): Linear(in_features=512, out_features=256, bias=True)
    (out): Linear(in_features=256, out_features=10000, bias=True)
    (attn): Attn(
      (attn): Linear(in_features=256, out_features=256, bias=True)
    )
  )
)
-----------------------------------------

-----------------------------------------
2020-02-27 16:27:03,777::INFO
main.py::82
args: Namespace(a=True, dc='/hits/basement/nlp/fatimamh/s2s_summarization/data_config_en_sub', e=False, i=False, mc='/hits/basement/nlp/fatimamh/s2s_summarization/model_config_sub', p=False, t=False, v=False)
-----------------------------------------

-----------------------------------------
2020-02-27 16:27:03,782::INFO
main.py::109
prog_start_time: 1582817223.7820833
-----------------------------------------

-----------------------------------------
2020-02-27 16:27:03,782::INFO
main.py::111
device: cuda:0
-----------------------------------------

-----------------------------------------
2020-02-27 16:27:07,044::INFO
main.py::124
Model layers: S2SModel(
  (encoder): Encoder(
    (embedding): Embedding(30000, 128)
    (gru): GRU(128, 256)
    (dropout): Dropout(p=0, inplace=False)
  )
  (decoder): AttentionDecoder(
    (embedding): Embedding(10000, 128)
    (embedding_dropout): Dropout(p=0, inplace=False)
    (gru): GRU(128, 256)
    (concat): Linear(in_features=512, out_features=256, bias=True)
    (out): Linear(in_features=256, out_features=10000, bias=True)
    (attn): Attn(
      (attn): Linear(in_features=256, out_features=256, bias=True)
    )
  )
)
-----------------------------------------

-----------------------------------------
2020-02-27 16:28:03,355::INFO
main.py::82
args: Namespace(a=True, dc='/hits/basement/nlp/fatimamh/s2s_summarization/data_config_en_sub', e=False, i=False, mc='/hits/basement/nlp/fatimamh/s2s_summarization/model_config_sub', p=False, t=False, v=False)
-----------------------------------------

-----------------------------------------
2020-02-27 16:28:03,357::INFO
main.py::109
prog_start_time: 1582817283.3577344
-----------------------------------------

-----------------------------------------
2020-02-27 16:28:03,358::INFO
main.py::111
device: cuda:0
-----------------------------------------

-----------------------------------------
2020-02-27 16:28:06,580::INFO
main.py::124
Model layers: S2SModel(
  (encoder): Encoder(
    (embedding): Embedding(30000, 128)
    (gru): GRU(128, 256)
    (dropout): Dropout(p=0, inplace=False)
  )
  (decoder): AttentionDecoder(
    (embedding): Embedding(10000, 128)
    (embedding_dropout): Dropout(p=0, inplace=False)
    (gru): GRU(128, 256)
    (concat): Linear(in_features=512, out_features=256, bias=True)
    (out): Linear(in_features=256, out_features=10000, bias=True)
    (attn): Attn(
      (attn): Linear(in_features=256, out_features=256, bias=True)
    )
  )
)
-----------------------------------------

-----------------------------------------
2020-02-27 16:32:48,611::INFO
main.py::82
args: Namespace(a=True, dc='/hits/basement/nlp/fatimamh/s2s_summarization/data_config_en_sub', e=False, i=False, mc='/hits/basement/nlp/fatimamh/s2s_summarization/model_config_sub', p=False, t=False, v=False)
-----------------------------------------

-----------------------------------------
2020-02-27 16:32:48,616::INFO
main.py::109
prog_start_time: 1582817568.616402
-----------------------------------------

-----------------------------------------
2020-02-27 16:32:48,617::INFO
main.py::111
device: cuda:0
-----------------------------------------

-----------------------------------------
2020-02-27 16:32:51,900::INFO
main.py::124
Model layers: S2SModel(
  (encoder): Encoder(
    (embedding): Embedding(30000, 128)
    (gru): GRU(128, 256)
    (dropout): Dropout(p=0, inplace=False)
  )
  (decoder): AttentionDecoder(
    (embedding): Embedding(10000, 128)
    (embedding_dropout): Dropout(p=0, inplace=False)
    (gru): GRU(128, 256)
    (concat): Linear(in_features=512, out_features=256, bias=True)
    (out): Linear(in_features=256, out_features=10000, bias=True)
    (attn): Attn(
      (attn): Linear(in_features=256, out_features=256, bias=True)
    )
  )
)
-----------------------------------------

-----------------------------------------
2020-02-27 16:35:00,272::INFO
main.py::82
args: Namespace(a=True, dc='/hits/basement/nlp/fatimamh/s2s_summarization/data_config_en_sub', e=False, i=False, mc='/hits/basement/nlp/fatimamh/s2s_summarization/model_config_sub', p=False, t=False, v=False)
-----------------------------------------

-----------------------------------------
2020-02-27 16:35:00,277::INFO
main.py::109
prog_start_time: 1582817700.2773275
-----------------------------------------

-----------------------------------------
2020-02-27 16:35:00,278::INFO
main.py::111
device: cuda:0
-----------------------------------------

-----------------------------------------
2020-02-27 16:35:03,504::INFO
main.py::124
Model layers: S2SModel(
  (encoder): Encoder(
    (embedding): Embedding(30000, 128)
    (gru): GRU(128, 256)
    (dropout): Dropout(p=0, inplace=False)
  )
  (decoder): AttentionDecoder(
    (embedding): Embedding(10000, 128)
    (embedding_dropout): Dropout(p=0, inplace=False)
    (gru): GRU(128, 256)
    (concat): Linear(in_features=512, out_features=256, bias=True)
    (out): Linear(in_features=256, out_features=10000, bias=True)
    (attn): Attn(
      (attn): Linear(in_features=256, out_features=256, bias=True)
    )
  )
)
-----------------------------------------

-----------------------------------------
2020-02-27 16:35:55,178::INFO
main.py::82
args: Namespace(a=True, dc='/hits/basement/nlp/fatimamh/s2s_summarization/data_config_en_sub', e=False, i=False, mc='/hits/basement/nlp/fatimamh/s2s_summarization/model_config_sub', p=False, t=False, v=False)
-----------------------------------------

-----------------------------------------
2020-02-27 16:35:55,181::INFO
main.py::109
prog_start_time: 1582817755.1810648
-----------------------------------------

-----------------------------------------
2020-02-27 16:35:55,181::INFO
main.py::111
device: cuda:0
-----------------------------------------

-----------------------------------------
2020-02-27 16:35:58,431::INFO
main.py::124
Model layers: S2SModel(
  (encoder): Encoder(
    (embedding): Embedding(30000, 128)
    (gru): GRU(128, 256)
    (dropout): Dropout(p=0, inplace=False)
  )
  (decoder): AttentionDecoder(
    (embedding): Embedding(10000, 128)
    (embedding_dropout): Dropout(p=0, inplace=False)
    (gru): GRU(128, 256)
    (concat): Linear(in_features=512, out_features=256, bias=True)
    (out): Linear(in_features=256, out_features=10000, bias=True)
    (attn): Attn(
      (attn): Linear(in_features=256, out_features=256, bias=True)
    )
  )
)
-----------------------------------------

-----------------------------------------
2020-02-27 16:55:11,679::INFO
main.py::81
args: Namespace(a=True, dc='/hits/basement/nlp/fatimamh/s2s_summarization/data_config_en_sub', e=False, i=False, mc='/hits/basement/nlp/fatimamh/s2s_summarization/model_config_sub', p=False, t=False)
-----------------------------------------

-----------------------------------------
2020-02-27 16:55:11,682::INFO
main.py::102
prog_start_time: 1582818911.6826465
-----------------------------------------

-----------------------------------------
2020-02-27 16:55:11,683::INFO
main.py::104
device: cuda:0
-----------------------------------------

-----------------------------------------
2020-02-27 16:55:14,891::INFO
main.py::117
Model layers: S2SModel(
  (encoder): Encoder(
    (embedding): Embedding(30000, 128)
    (gru): GRU(128, 256)
    (dropout): Dropout(p=0, inplace=False)
  )
  (decoder): AttentionDecoder(
    (embedding): Embedding(10000, 128)
    (embedding_dropout): Dropout(p=0, inplace=False)
    (gru): GRU(128, 256)
    (concat): Linear(in_features=512, out_features=256, bias=True)
    (out): Linear(in_features=256, out_features=10000, bias=True)
    (attn): Attn(
      (attn): Linear(in_features=256, out_features=256, bias=True)
    )
  )
)
-----------------------------------------

-----------------------------------------
2020-02-27 16:55:47,849::INFO
main.py::81
args: Namespace(a=True, dc='/hits/basement/nlp/fatimamh/s2s_summarization/data_config_en_sub', e=False, i=False, mc='/hits/basement/nlp/fatimamh/s2s_summarization/model_config_sub', p=False, t=False)
-----------------------------------------

-----------------------------------------
2020-02-27 16:55:47,854::INFO
main.py::102
prog_start_time: 1582818947.8545263
-----------------------------------------

-----------------------------------------
2020-02-27 16:55:47,855::INFO
main.py::104
device: cuda:0
-----------------------------------------

-----------------------------------------
2020-02-27 16:55:51,069::INFO
main.py::117
Model layers: S2SModel(
  (encoder): Encoder(
    (embedding): Embedding(30000, 128)
    (gru): GRU(128, 256)
    (dropout): Dropout(p=0, inplace=False)
  )
  (decoder): AttentionDecoder(
    (embedding): Embedding(10000, 128)
    (embedding_dropout): Dropout(p=0, inplace=False)
    (gru): GRU(128, 256)
    (concat): Linear(in_features=512, out_features=256, bias=True)
    (out): Linear(in_features=256, out_features=10000, bias=True)
    (attn): Attn(
      (attn): Linear(in_features=256, out_features=256, bias=True)
    )
  )
)
-----------------------------------------

-----------------------------------------
2020-02-27 16:58:06,762::INFO
main.py::81
args: Namespace(a=True, dc='/hits/basement/nlp/fatimamh/s2s_summarization/data_config_en_sub', e=False, i=False, mc='/hits/basement/nlp/fatimamh/s2s_summarization/model_config_sub', p=False, t=False)
-----------------------------------------

-----------------------------------------
2020-02-27 16:58:06,766::INFO
main.py::102
prog_start_time: 1582819086.766456
-----------------------------------------

-----------------------------------------
2020-02-27 16:58:06,767::INFO
main.py::104
device: cuda:0
-----------------------------------------

-----------------------------------------
2020-02-27 16:58:09,954::INFO
main.py::117
Model layers: S2SModel(
  (encoder): Encoder(
    (embedding): Embedding(30000, 128)
    (gru): GRU(128, 256)
    (dropout): Dropout(p=0, inplace=False)
  )
  (decoder): AttentionDecoder(
    (embedding): Embedding(10000, 128)
    (embedding_dropout): Dropout(p=0, inplace=False)
    (gru): GRU(128, 256)
    (concat): Linear(in_features=512, out_features=256, bias=True)
    (out): Linear(in_features=256, out_features=10000, bias=True)
    (attn): Attn(
      (attn): Linear(in_features=256, out_features=256, bias=True)
    )
  )
)
-----------------------------------------

-----------------------------------------
2020-02-27 17:00:48,775::INFO
main.py::81
args: Namespace(a=True, dc='/hits/basement/nlp/fatimamh/s2s_summarization/data_config_en_sub', e=False, i=False, mc='/hits/basement/nlp/fatimamh/s2s_summarization/model_config_sub', p=False, t=False)
-----------------------------------------

-----------------------------------------
2020-02-27 17:00:48,779::INFO
main.py::102
prog_start_time: 1582819248.779901
-----------------------------------------

-----------------------------------------
2020-02-27 17:00:48,780::INFO
main.py::104
device: cuda:0
-----------------------------------------

-----------------------------------------
2020-02-27 17:00:51,985::INFO
main.py::117
Model layers: S2SModel(
  (encoder): Encoder(
    (embedding): Embedding(30000, 128)
    (gru): GRU(128, 256)
    (dropout): Dropout(p=0, inplace=False)
  )
  (decoder): AttentionDecoder(
    (embedding): Embedding(10000, 128)
    (embedding_dropout): Dropout(p=0, inplace=False)
    (gru): GRU(128, 256)
    (concat): Linear(in_features=512, out_features=256, bias=True)
    (out): Linear(in_features=256, out_features=10000, bias=True)
    (attn): Attn(
      (attn): Linear(in_features=256, out_features=256, bias=True)
    )
  )
)
-----------------------------------------

-----------------------------------------
2020-02-27 17:05:09,469::INFO
main.py::81
args: Namespace(a=True, dc='/hits/basement/nlp/fatimamh/s2s_summarization/data_config_en_sub', e=False, i=False, mc='/hits/basement/nlp/fatimamh/s2s_summarization/model_config_sub', p=False, t=False)
-----------------------------------------

-----------------------------------------
2020-02-27 17:05:09,473::INFO
main.py::102
prog_start_time: 1582819509.473323
-----------------------------------------

-----------------------------------------
2020-02-27 17:05:09,474::INFO
main.py::104
device: cuda:0
-----------------------------------------

-----------------------------------------
2020-02-27 17:05:12,724::INFO
main.py::117
Model layers: S2SModel(
  (encoder): Encoder(
    (embedding): Embedding(30000, 128)
    (gru): GRU(128, 256)
    (dropout): Dropout(p=0, inplace=False)
  )
  (decoder): AttentionDecoder(
    (embedding): Embedding(10000, 128)
    (embedding_dropout): Dropout(p=0, inplace=False)
    (gru): GRU(128, 256)
    (concat): Linear(in_features=512, out_features=256, bias=True)
    (out): Linear(in_features=256, out_features=10000, bias=True)
    (attn): Attn(
      (attn): Linear(in_features=256, out_features=256, bias=True)
    )
  )
)
-----------------------------------------

-----------------------------------------
2020-02-27 17:05:42,415::INFO
main.py::81
args: Namespace(a=True, dc='/hits/basement/nlp/fatimamh/s2s_summarization/data_config_en_sub', e=False, i=False, mc='/hits/basement/nlp/fatimamh/s2s_summarization/model_config_sub', p=False, t=False)
-----------------------------------------

-----------------------------------------
2020-02-27 17:05:42,418::INFO
main.py::102
prog_start_time: 1582819542.41835
-----------------------------------------

-----------------------------------------
2020-02-27 17:05:42,418::INFO
main.py::104
device: cuda:0
-----------------------------------------

-----------------------------------------
2020-02-27 17:05:45,660::INFO
main.py::117
Model layers: S2SModel(
  (encoder): Encoder(
    (embedding): Embedding(30000, 128)
    (gru): GRU(128, 256)
    (dropout): Dropout(p=0, inplace=False)
  )
  (decoder): AttentionDecoder(
    (embedding): Embedding(10000, 128)
    (embedding_dropout): Dropout(p=0, inplace=False)
    (gru): GRU(128, 256)
    (concat): Linear(in_features=512, out_features=256, bias=True)
    (out): Linear(in_features=256, out_features=10000, bias=True)
    (attn): Attn(
      (attn): Linear(in_features=256, out_features=256, bias=True)
    )
  )
)
-----------------------------------------

-----------------------------------------
2020-02-27 17:08:05,713::INFO
main.py::81
args: Namespace(a=True, dc='/hits/basement/nlp/fatimamh/s2s_summarization/data_config_en_sub', e=False, i=False, mc='/hits/basement/nlp/fatimamh/s2s_summarization/model_config_sub', p=False, t=False)
-----------------------------------------

-----------------------------------------
2020-02-27 17:08:05,716::INFO
main.py::102
prog_start_time: 1582819685.7168496
-----------------------------------------

-----------------------------------------
2020-02-27 17:08:05,717::INFO
main.py::104
device: cuda:0
-----------------------------------------

-----------------------------------------
2020-02-27 17:08:08,968::INFO
main.py::117
Model layers: S2SModel(
  (encoder): Encoder(
    (embedding): Embedding(30000, 128)
    (gru): GRU(128, 256)
    (dropout): Dropout(p=0, inplace=False)
  )
  (decoder): AttentionDecoder(
    (embedding): Embedding(10000, 128)
    (embedding_dropout): Dropout(p=0, inplace=False)
    (gru): GRU(128, 256)
    (concat): Linear(in_features=512, out_features=256, bias=True)
    (out): Linear(in_features=256, out_features=10000, bias=True)
    (attn): Attn(
      (attn): Linear(in_features=256, out_features=256, bias=True)
    )
  )
)
-----------------------------------------

-----------------------------------------
2020-02-27 17:13:21,620::INFO
main.py::81
args: Namespace(a=True, dc='/hits/basement/nlp/fatimamh/s2s_summarization/data_config_en_sub', e=False, i=False, mc='/hits/basement/nlp/fatimamh/s2s_summarization/model_config_sub', p=False, t=False)
-----------------------------------------

-----------------------------------------
2020-02-27 17:13:21,624::INFO
main.py::102
prog_start_time: 1582820001.6243205
-----------------------------------------

-----------------------------------------
2020-02-27 17:13:21,624::INFO
main.py::104
device: cuda:0
-----------------------------------------

-----------------------------------------
2020-02-27 17:13:25,241::INFO
main.py::117
Model layers: S2SModel(
  (encoder): Encoder(
    (embedding): Embedding(30000, 128)
    (gru): GRU(128, 256)
    (dropout): Dropout(p=0, inplace=False)
  )
  (decoder): AttentionDecoder(
    (embedding): Embedding(10000, 128)
    (embedding_dropout): Dropout(p=0, inplace=False)
    (gru): GRU(128, 256)
    (concat): Linear(in_features=512, out_features=256, bias=True)
    (out): Linear(in_features=256, out_features=10000, bias=True)
    (attn): Attn(
      (attn): Linear(in_features=256, out_features=256, bias=True)
    )
  )
)
-----------------------------------------

-----------------------------------------
2020-02-27 17:17:51,944::INFO
main.py::81
args: Namespace(a=True, dc='/hits/basement/nlp/fatimamh/s2s_summarization/data_config_en_sub', e=False, i=False, mc='/hits/basement/nlp/fatimamh/s2s_summarization/model_config_sub', p=False, t=False)
-----------------------------------------

-----------------------------------------
2020-02-27 17:17:51,946::INFO
main.py::102
prog_start_time: 1582820271.9468982
-----------------------------------------

-----------------------------------------
2020-02-27 17:17:51,947::INFO
main.py::104
device: cuda:0
-----------------------------------------

-----------------------------------------
2020-02-27 17:17:55,185::INFO
main.py::117
Model layers: S2SModel(
  (encoder): Encoder(
    (embedding): Embedding(30000, 128)
    (gru): GRU(128, 256)
    (dropout): Dropout(p=0, inplace=False)
  )
  (decoder): AttentionDecoder(
    (embedding): Embedding(10000, 128)
    (embedding_dropout): Dropout(p=0, inplace=False)
    (gru): GRU(128, 256)
    (concat): Linear(in_features=512, out_features=256, bias=True)
    (out): Linear(in_features=256, out_features=10000, bias=True)
    (attn): Attn(
      (attn): Linear(in_features=256, out_features=256, bias=True)
    )
  )
)
-----------------------------------------

-----------------------------------------
2020-02-27 17:18:55,367::INFO
main.py::81
args: Namespace(a=True, dc='/hits/basement/nlp/fatimamh/s2s_summarization/data_config_en_sub', e=False, i=False, mc='/hits/basement/nlp/fatimamh/s2s_summarization/model_config_sub', p=False, t=False)
-----------------------------------------

-----------------------------------------
2020-02-27 17:18:55,372::INFO
main.py::102
prog_start_time: 1582820335.3719792
-----------------------------------------

-----------------------------------------
2020-02-27 17:18:55,372::INFO
main.py::104
device: cuda:0
-----------------------------------------

-----------------------------------------
2020-02-27 17:18:58,637::INFO
main.py::117
Model layers: S2SModel(
  (encoder): Encoder(
    (embedding): Embedding(30000, 128)
    (gru): GRU(128, 256)
    (dropout): Dropout(p=0, inplace=False)
  )
  (decoder): AttentionDecoder(
    (embedding): Embedding(10000, 128)
    (embedding_dropout): Dropout(p=0, inplace=False)
    (gru): GRU(128, 256)
    (concat): Linear(in_features=512, out_features=256, bias=True)
    (out): Linear(in_features=256, out_features=10000, bias=True)
    (attn): Attn(
      (attn): Linear(in_features=256, out_features=256, bias=True)
    )
  )
)
-----------------------------------------

-----------------------------------------
2020-02-27 17:21:40,454::INFO
main.py::81
args: Namespace(a=True, dc='/hits/basement/nlp/fatimamh/s2s_summarization/data_config_en_sub', e=False, i=False, mc='/hits/basement/nlp/fatimamh/s2s_summarization/model_config_sub', p=False, t=False)
-----------------------------------------

-----------------------------------------
2020-02-27 17:21:40,457::INFO
main.py::102
prog_start_time: 1582820500.4578052
-----------------------------------------

-----------------------------------------
2020-02-27 17:21:40,458::INFO
main.py::104
device: cuda:0
-----------------------------------------

-----------------------------------------
2020-02-27 17:21:43,666::INFO
main.py::117
Model layers: S2SModel(
  (encoder): Encoder(
    (embedding): Embedding(30000, 128)
    (gru): GRU(128, 256)
    (dropout): Dropout(p=0, inplace=False)
  )
  (decoder): AttentionDecoder(
    (embedding): Embedding(10000, 128)
    (embedding_dropout): Dropout(p=0, inplace=False)
    (gru): GRU(128, 256)
    (concat): Linear(in_features=512, out_features=256, bias=True)
    (out): Linear(in_features=256, out_features=10000, bias=True)
    (attn): Attn(
      (attn): Linear(in_features=256, out_features=256, bias=True)
    )
  )
)
-----------------------------------------

-----------------------------------------
2020-02-27 17:24:27,127::INFO
main.py::81
args: Namespace(a=True, dc='/hits/basement/nlp/fatimamh/s2s_summarization/data_config_en_sub', e=False, i=False, mc='/hits/basement/nlp/fatimamh/s2s_summarization/model_config_sub', p=False, t=False)
-----------------------------------------

-----------------------------------------
2020-02-27 17:24:27,129::INFO
main.py::102
prog_start_time: 1582820667.129856
-----------------------------------------

-----------------------------------------
2020-02-27 17:24:27,130::INFO
main.py::104
device: cuda:0
-----------------------------------------

-----------------------------------------
2020-02-27 17:24:30,348::INFO
main.py::117
Model layers: S2SModel(
  (encoder): Encoder(
    (embedding): Embedding(30000, 128)
    (gru): GRU(128, 256)
    (dropout): Dropout(p=0, inplace=False)
  )
  (decoder): AttentionDecoder(
    (embedding): Embedding(10000, 128)
    (embedding_dropout): Dropout(p=0, inplace=False)
    (gru): GRU(128, 256)
    (concat): Linear(in_features=512, out_features=256, bias=True)
    (out): Linear(in_features=256, out_features=10000, bias=True)
    (attn): Attn(
      (attn): Linear(in_features=256, out_features=256, bias=True)
    )
  )
)
-----------------------------------------

-----------------------------------------
2020-02-27 17:26:19,328::INFO
main.py::81
args: Namespace(a=True, dc='/hits/basement/nlp/fatimamh/s2s_summarization/data_config_en_sub', e=False, i=False, mc='/hits/basement/nlp/fatimamh/s2s_summarization/model_config_sub', p=False, t=False)
-----------------------------------------

-----------------------------------------
2020-02-27 17:26:19,333::INFO
main.py::102
prog_start_time: 1582820779.3331914
-----------------------------------------

-----------------------------------------
2020-02-27 17:26:19,333::INFO
main.py::104
device: cuda:0
-----------------------------------------

-----------------------------------------
2020-02-27 17:26:22,530::INFO
main.py::117
Model layers: S2SModel(
  (encoder): Encoder(
    (embedding): Embedding(30000, 128)
    (gru): GRU(128, 256)
    (dropout): Dropout(p=0, inplace=False)
  )
  (decoder): AttentionDecoder(
    (embedding): Embedding(10000, 128)
    (embedding_dropout): Dropout(p=0, inplace=False)
    (gru): GRU(128, 256)
    (concat): Linear(in_features=512, out_features=256, bias=True)
    (out): Linear(in_features=256, out_features=10000, bias=True)
    (attn): Attn(
      (attn): Linear(in_features=256, out_features=256, bias=True)
    )
  )
)
-----------------------------------------

-----------------------------------------
2020-02-27 17:27:50,623::INFO
main.py::81
args: Namespace(a=True, dc='/hits/basement/nlp/fatimamh/s2s_summarization/data_config_en_sub', e=False, i=False, mc='/hits/basement/nlp/fatimamh/s2s_summarization/model_config_sub', p=False, t=False)
-----------------------------------------

-----------------------------------------
2020-02-27 17:27:50,626::INFO
main.py::102
prog_start_time: 1582820870.626339
-----------------------------------------

-----------------------------------------
2020-02-27 17:27:50,626::INFO
main.py::104
device: cuda:0
-----------------------------------------

-----------------------------------------
2020-02-27 17:27:53,825::INFO
main.py::117
Model layers: S2SModel(
  (encoder): Encoder(
    (embedding): Embedding(30000, 128)
    (gru): GRU(128, 256)
    (dropout): Dropout(p=0, inplace=False)
  )
  (decoder): AttentionDecoder(
    (embedding): Embedding(10000, 128)
    (embedding_dropout): Dropout(p=0, inplace=False)
    (gru): GRU(128, 256)
    (concat): Linear(in_features=512, out_features=256, bias=True)
    (out): Linear(in_features=256, out_features=10000, bias=True)
    (attn): Attn(
      (attn): Linear(in_features=256, out_features=256, bias=True)
    )
  )
)
-----------------------------------------

-----------------------------------------
2020-02-27 17:31:44,708::INFO
main.py::81
args: Namespace(a=True, dc='/hits/basement/nlp/fatimamh/s2s_summarization/data_config_en_sub', e=False, i=False, mc='/hits/basement/nlp/fatimamh/s2s_summarization/model_config_sub', p=False, t=False)
-----------------------------------------

-----------------------------------------
2020-02-27 17:31:44,711::INFO
main.py::102
prog_start_time: 1582821104.71127
-----------------------------------------

-----------------------------------------
2020-02-27 17:31:44,711::INFO
main.py::104
device: cuda:0
-----------------------------------------

-----------------------------------------
2020-02-27 17:31:47,934::INFO
main.py::117
Model layers: S2SModel(
  (encoder): Encoder(
    (embedding): Embedding(30000, 128)
    (gru): GRU(128, 256)
    (dropout): Dropout(p=0, inplace=False)
  )
  (decoder): AttentionDecoder(
    (embedding): Embedding(10000, 128)
    (embedding_dropout): Dropout(p=0, inplace=False)
    (gru): GRU(128, 256)
    (concat): Linear(in_features=512, out_features=256, bias=True)
    (out): Linear(in_features=256, out_features=10000, bias=True)
    (attn): Attn(
      (attn): Linear(in_features=256, out_features=256, bias=True)
    )
  )
)
-----------------------------------------

-----------------------------------------
2020-02-27 17:32:47,643::INFO
main.py::81
args: Namespace(a=True, dc='/hits/basement/nlp/fatimamh/s2s_summarization/data_config_en_sub', e=False, i=False, mc='/hits/basement/nlp/fatimamh/s2s_summarization/model_config_sub', p=False, t=False)
-----------------------------------------

-----------------------------------------
2020-02-27 17:32:47,647::INFO
main.py::102
prog_start_time: 1582821167.6473749
-----------------------------------------

-----------------------------------------
2020-02-27 17:32:47,648::INFO
main.py::104
device: cuda:0
-----------------------------------------

-----------------------------------------
2020-02-27 17:32:50,917::INFO
main.py::117
Model layers: S2SModel(
  (encoder): Encoder(
    (embedding): Embedding(30000, 128)
    (gru): GRU(128, 256)
    (dropout): Dropout(p=0, inplace=False)
  )
  (decoder): AttentionDecoder(
    (embedding): Embedding(10000, 128)
    (embedding_dropout): Dropout(p=0, inplace=False)
    (gru): GRU(128, 256)
    (concat): Linear(in_features=512, out_features=256, bias=True)
    (out): Linear(in_features=256, out_features=10000, bias=True)
    (attn): Attn(
      (attn): Linear(in_features=256, out_features=256, bias=True)
    )
  )
)
-----------------------------------------

-----------------------------------------
2020-02-27 17:37:49,517::INFO
main.py::81
args: Namespace(a=True, dc='/hits/basement/nlp/fatimamh/s2s_summarization/data_config_en_sub', e=False, i=False, mc='/hits/basement/nlp/fatimamh/s2s_summarization/model_config_sub', p=True, t=False)
-----------------------------------------
…
args: Namespace(a=True, dc='/hits/basement/nlp/fatimamh/s2s_summarization/data_config_en_sub', e=False, i=False, mc='/hits/basement/nlp/fatimamh/s2s_summarization/model_config_sub', p=False, t=False)
-----------------------------------------

-----------------------------------------
2020-02-27 17:38:08,940::INFO
main.py::102
prog_start_time: 1582821488.9407861
-----------------------------------------

-----------------------------------------
2020-02-27 17:38:08,941::INFO
main.py::104
device: cuda:0
-----------------------------------------

-----------------------------------------
2020-02-27 17:38:12,171::INFO
main.py::117
Model layers: S2SModel(
  (encoder): Encoder(
    (embedding): Embedding(30000, 128)
    (gru): GRU(128, 256)
    (dropout): Dropout(p=0, inplace=False)
  )
  (decoder): AttentionDecoder(
    (embedding): Embedding(10000, 128)
    (embedding_dropout): Dropout(p=0, inplace=False)
    (gru): GRU(128, 256)
    (concat): Linear(in_features=512, out_features=256, bias=True)
    (out): Linear(in_features=256, out_features=10000, bias=True)
    (attn): Attn(
      (attn): Linear(in_features=256, out_features=256, bias=True)
    )
  )
)
-----------------------------------------

-----------------------------------------
2020-02-27 17:41:53,544::INFO
main.py::81
args: Namespace(a=True, dc='/hits/basement/nlp/fatimamh/s2s_summarization/data_config_en_sub', e=False, i=False, mc='/hits/basement/nlp/fatimamh/s2s_summarization/model_config_sub', p=False, t=False)
-----------------------------------------

-----------------------------------------
2020-02-27 17:41:53,549::INFO
main.py::102
prog_start_time: 1582821713.5490632
-----------------------------------------

-----------------------------------------
2020-02-27 17:41:53,549::INFO
main.py::104
device: cuda:0
-----------------------------------------

-----------------------------------------
2020-02-27 17:41:56,768::INFO
main.py::117
Model layers: S2SModel(
  (encoder): Encoder(
    (embedding): Embedding(30000, 128)
    (gru): GRU(128, 256)
    (dropout): Dropout(p=0, inplace=False)
  )
  (decoder): AttentionDecoder(
    (embedding): Embedding(10000, 128)
    (embedding_dropout): Dropout(p=0, inplace=False)
    (gru): GRU(128, 256)
    (concat): Linear(in_features=512, out_features=256, bias=True)
    (out): Linear(in_features=256, out_features=10000, bias=True)
    (attn): Attn(
      (attn): Linear(in_features=256, out_features=256, bias=True)
    )
  )
)
-----------------------------------------

-----------------------------------------
2020-02-27 17:57:33,780::INFO
main.py::81
args: Namespace(a=True, dc='/hits/basement/nlp/fatimamh/s2s_summarization/data_config_en_sub', e=False, i=False, mc='/hits/basement/nlp/fatimamh/s2s_summarization/model_config_sub', p=False, t=False)
-----------------------------------------

-----------------------------------------
2020-02-27 17:57:33,782::INFO
main.py::102
prog_start_time: 1582822653.78277
-----------------------------------------

-----------------------------------------
2020-02-27 17:57:33,783::INFO
main.py::104
device: cuda:0
-----------------------------------------

-----------------------------------------
2020-02-27 17:57:36,978::INFO
main.py::117
Model layers: S2SModel(
  (encoder): Encoder(
    (embedding): Embedding(30000, 128)
    (gru): GRU(128, 256)
    (dropout): Dropout(p=0, inplace=False)
  )
  (decoder): AttentionDecoder(
    (embedding): Embedding(10000, 128)
    (embedding_dropout): Dropout(p=0, inplace=False)
    (gru): GRU(128, 256)
    (concat): Linear(in_features=512, out_features=256, bias=True)
    (out): Linear(in_features=256, out_features=10000, bias=True)
    (attn): Attn(
      (attn): Linear(in_features=256, out_features=256, bias=True)
    )
  )
)
-----------------------------------------

-----------------------------------------
2020-02-27 18:02:50,712::INFO
main.py::81
args: Namespace(a=True, dc='/hits/basement/nlp/fatimamh/s2s_summarization/data_config_en_sub', e=False, i=False, mc='/hits/basement/nlp/fatimamh/s2s_summarization/model_config_sub', p=False, t=False)
-----------------------------------------

-----------------------------------------
2020-02-27 18:02:50,717::INFO
main.py::102
prog_start_time: 1582822970.717695
-----------------------------------------

-----------------------------------------
2020-02-27 18:02:50,718::INFO
main.py::104
device: cuda:0
-----------------------------------------

-----------------------------------------
2020-02-27 18:02:53,911::INFO
main.py::117
Model layers: S2SModel(
  (encoder): Encoder(
    (embedding): Embedding(30000, 128)
    (gru): GRU(128, 256)
    (dropout): Dropout(p=0, inplace=False)
  )
  (decoder): AttentionDecoder(
    (embedding): Embedding(10000, 128)
    (embedding_dropout): Dropout(p=0, inplace=False)
    (gru): GRU(128, 256)
    (concat): Linear(in_features=512, out_features=256, bias=True)
    (out): Linear(in_features=256, out_features=10000, bias=True)
    (attn): Attn(
      (attn): Linear(in_features=256, out_features=256, bias=True)
    )
  )
)
-----------------------------------------

-----------------------------------------
2020-02-27 18:05:17,762::INFO
main.py::83
args: Namespace(a=True, dc='/hits/basement/nlp/fatimamh/s2s_summarization/data_config_en_sub', e=False, i=False, mc='/hits/basement/nlp/fatimamh/s2s_summarization/model_config_sub', p=False, t=False)
-----------------------------------------

-----------------------------------------
2020-02-27 18:05:17,765::INFO
main.py::104
prog_start_time: 1582823117.7652164
-----------------------------------------

-----------------------------------------
2020-02-27 18:05:17,765::INFO
main.py::106
device: cuda:0
-----------------------------------------

-----------------------------------------
2020-02-27 18:05:20,941::INFO
main.py::119
Model layers: S2SModel(
  (encoder): Encoder(
    (embedding): Embedding(30000, 128)
    (gru): GRU(128, 256)
    (dropout): Dropout(p=0, inplace=False)
  )
  (decoder): AttentionDecoder(
    (embedding): Embedding(10000, 128)
    (embedding_dropout): Dropout(p=0, inplace=False)
    (gru): GRU(128, 256)
    (concat): Linear(in_features=512, out_features=256, bias=True)
    (out): Linear(in_features=256, out_features=10000, bias=True)
    (attn): Attn(
      (attn): Linear(in_features=256, out_features=256, bias=True)
    )
  )
)
-----------------------------------------

-----------------------------------------
2020-02-27 18:09:50,857::INFO
main.py::83
args: Namespace(a=True, dc='/hits/basement/nlp/fatimamh/s2s_summarization/data_config_en_sub', e=False, i=False, mc='/hits/basement/nlp/fatimamh/s2s_summarization/model_config_sub', p=False, t=False)
-----------------------------------------

-----------------------------------------
2020-02-27 18:09:50,861::INFO
main.py::104
prog_start_time: 1582823390.8611977
-----------------------------------------

-----------------------------------------
2020-02-27 18:09:50,861::INFO
main.py::106
device: cuda:0
-----------------------------------------

-----------------------------------------
2020-02-27 18:09:54,033::INFO
main.py::119
Model layers: S2SModel(
  (encoder): Encoder(
    (embedding): Embedding(30000, 128)
    (gru): GRU(128, 256)
    (dropout): Dropout(p=0, inplace=False)
  )
  (decoder): AttentionDecoder(
    (embedding): Embedding(10000, 128)
    (embedding_dropout): Dropout(p=0, inplace=False)
    (gru): GRU(128, 256)
    (concat): Linear(in_features=512, out_features=256, bias=True)
    (out): Linear(in_features=256, out_features=10000, bias=True)
    (attn): Attn(
      (attn): Linear(in_features=256, out_features=256, bias=True)
    )
  )
)
-----------------------------------------

-----------------------------------------
2020-02-28 11:13:45,143::INFO
main.py::83
args: Namespace(a=True, dc='/hits/basement/nlp/fatimamh/s2s_summarization/data_config_en_sub', e=False, i=False, mc='/hits/basement/nlp/fatimamh/s2s_summarization/model_config_sub', p=False, t=False)
-----------------------------------------

-----------------------------------------
2020-02-28 11:13:45,187::INFO
main.py::104
prog_start_time: 1582884825.1877775
-----------------------------------------

-----------------------------------------
2020-02-28 11:13:45,188::INFO
main.py::106
device: cuda:0
-----------------------------------------

-----------------------------------------
2020-02-28 11:13:52,155::INFO
main.py::119
Model layers: S2SModel(
  (encoder): Encoder(
    (embedding): Embedding(30000, 128)
    (gru): GRU(128, 256)
    (dropout): Dropout(p=0, inplace=False)
  )
  (decoder): AttentionDecoder(
    (embedding): Embedding(10000, 128)
    (embedding_dropout): Dropout(p=0, inplace=False)
    (gru): GRU(128, 256)
    (concat): Linear(in_features=512, out_features=256, bias=True)
    (out): Linear(in_features=256, out_features=10000, bias=True)
    (attn): Attn(
      (attn): Linear(in_features=256, out_features=256, bias=True)
    )
  )
)
-----------------------------------------

-----------------------------------------
2020-02-28 11:15:21,717::INFO
main.py::83
args: Namespace(a=True, dc='/hits/basement/nlp/fatimamh/s2s_summarization/data_config_en_sub', e=False, i=False, mc='/hits/basement/nlp/fatimamh/s2s_summarization/model_config_sub', p=False, t=False)
-----------------------------------------

-----------------------------------------
2020-02-28 11:15:21,720::INFO
main.py::104
prog_start_time: 1582884921.7201302
-----------------------------------------

-----------------------------------------
2020-02-28 11:15:21,720::INFO
main.py::106
device: cuda:0
-----------------------------------------

-----------------------------------------
2020-02-28 11:15:24,935::INFO
main.py::119
Model layers: S2SModel(
  (encoder): Encoder(
    (embedding): Embedding(30000, 128)
    (gru): GRU(128, 256)
    (dropout): Dropout(p=0, inplace=False)
  )
  (decoder): AttentionDecoder(
    (embedding): Embedding(10000, 128)
    (embedding_dropout): Dropout(p=0, inplace=False)
    (gru): GRU(128, 256)
    (concat): Linear(in_features=512, out_features=256, bias=True)
    (out): Linear(in_features=256, out_features=10000, bias=True)
    (attn): Attn(
      (attn): Linear(in_features=256, out_features=256, bias=True)
    )
  )
)
-----------------------------------------

-----------------------------------------
2020-02-28 11:17:03,096::INFO
main.py::83
args: Namespace(a=True, dc='/hits/basement/nlp/fatimamh/s2s_summarization/data_config_en_sub', e=False, i=False, mc='/hits/basement/nlp/fatimamh/s2s_summarization/model_config_sub', p=False, t=False)
-----------------------------------------

-----------------------------------------
2020-02-28 11:17:03,101::INFO
main.py::104
prog_start_time: 1582885023.1012418
-----------------------------------------

-----------------------------------------
2020-02-28 11:17:03,101::INFO
main.py::106
device: cuda:0
-----------------------------------------

-----------------------------------------
2020-02-28 11:17:06,279::INFO
main.py::119
Model layers: S2SModel(
  (encoder): Encoder(
    (embedding): Embedding(30000, 128)
    (gru): GRU(128, 256)
    (dropout): Dropout(p=0, inplace=False)
  )
  (decoder): AttentionDecoder(
    (embedding): Embedding(10000, 128)
    (embedding_dropout): Dropout(p=0, inplace=False)
    (gru): GRU(128, 256)
    (concat): Linear(in_features=512, out_features=256, bias=True)
    (out): Linear(in_features=256, out_features=10000, bias=True)
    (attn): Attn(
      (attn): Linear(in_features=256, out_features=256, bias=True)
    )
  )
)
-----------------------------------------

-----------------------------------------
2020-02-28 11:18:24,781::INFO
main.py::83
args: Namespace(a=True, dc='/hits/basement/nlp/fatimamh/s2s_summarization/data_config_en_sub', e=False, i=False, mc='/hits/basement/nlp/fatimamh/s2s_summarization/model_config_sub', p=False, t=False)
-----------------------------------------

-----------------------------------------
2020-02-28 11:18:24,783::INFO
main.py::104
prog_start_time: 1582885104.7837257
-----------------------------------------

-----------------------------------------
2020-02-28 11:18:24,784::INFO
main.py::106
device: cuda:0
-----------------------------------------

-----------------------------------------
2020-02-28 11:18:27,998::INFO
main.py::119
Model layers: S2SModel(
  (encoder): Encoder(
    (embedding): Embedding(30000, 128)
    (gru): GRU(128, 256)
    (dropout): Dropout(p=0, inplace=False)
  )
  (decoder): AttentionDecoder(
    (embedding): Embedding(10000, 128)
    (embedding_dropout): Dropout(p=0, inplace=False)
    (gru): GRU(128, 256)
    (concat): Linear(in_features=512, out_features=256, bias=True)
    (out): Linear(in_features=256, out_features=10000, bias=True)
    (attn): Attn(
      (attn): Linear(in_features=256, out_features=256, bias=True)
    )
  )
)
-----------------------------------------

-----------------------------------------
2020-02-28 11:22:01,761::INFO
main.py::83
args: Namespace(a=True, dc='/hits/basement/nlp/fatimamh/s2s_summarization/data_config_en_sub', e=False, i=False, mc='/hits/basement/nlp/fatimamh/s2s_summarization/model_config_sub', p=False, t=False)
-----------------------------------------

-----------------------------------------
2020-02-28 11:22:01,765::INFO
main.py::104
prog_start_time: 1582885321.7653446
-----------------------------------------

-----------------------------------------
2020-02-28 11:22:01,766::INFO
main.py::106
device: cuda:0
-----------------------------------------

-----------------------------------------
2020-02-28 11:22:04,951::INFO
main.py::119
Model layers: S2SModel(
  (encoder): Encoder(
    (embedding): Embedding(30000, 128)
    (gru): GRU(128, 256)
    (dropout): Dropout(p=0, inplace=False)
  )
  (decoder): AttentionDecoder(
    (embedding): Embedding(10000, 128)
    (embedding_dropout): Dropout(p=0, inplace=False)
    (gru): GRU(128, 256)
    (concat): Linear(in_features=512, out_features=256, bias=True)
    (out): Linear(in_features=256, out_features=10000, bias=True)
    (attn): Attn(
      (attn): Linear(in_features=256, out_features=256, bias=True)
    )
  )
)
-----------------------------------------

-----------------------------------------
2020-02-28 11:27:18,512::INFO
main.py::83
args: Namespace(a=True, dc='/hits/basement/nlp/fatimamh/s2s_summarization/data_config_en_sub', e=False, i=False, mc='/hits/basement/nlp/fatimamh/s2s_summarization/model_config_sub', p=False, t=False)
-----------------------------------------

-----------------------------------------
2020-02-28 11:27:18,516::INFO
main.py::104
prog_start_time: 1582885638.5165648
-----------------------------------------

-----------------------------------------
2020-02-28 11:27:18,517::INFO
main.py::106
device: cuda:0
-----------------------------------------

-----------------------------------------
2020-02-28 11:27:21,738::INFO
main.py::119
Model layers: S2SModel(
  (encoder): Encoder(
    (embedding): Embedding(30000, 128)
    (gru): GRU(128, 256)
    (dropout): Dropout(p=0, inplace=False)
  )
  (decoder): AttentionDecoder(
    (embedding): Embedding(10000, 128)
    (embedding_dropout): Dropout(p=0, inplace=False)
    (gru): GRU(128, 256)
    (concat): Linear(in_features=512, out_features=256, bias=True)
    (out): Linear(in_features=256, out_features=10000, bias=True)
    (attn): Attn(
      (attn): Linear(in_features=256, out_features=256, bias=True)
    )
  )
)
-----------------------------------------

-----------------------------------------
2020-02-28 11:32:26,578::INFO
main.py::83
args: Namespace(a=True, dc='/hits/basement/nlp/fatimamh/s2s_summarization/data_config_en_sub', e=False, i=False, mc='/hits/basement/nlp/fatimamh/s2s_summarization/model_config_sub', p=False, t=False)
-----------------------------------------

-----------------------------------------
2020-02-28 11:32:26,583::INFO
main.py::104
device: cuda:0
-----------------------------------------

-----------------------------------------
2020-02-28 11:32:29,770::INFO
main.py::117
Model layers: S2SModel(
  (encoder): Encoder(
    (embedding): Embedding(30000, 128)
    (gru): GRU(128, 256)
    (dropout): Dropout(p=0, inplace=False)
  )
  (decoder): AttentionDecoder(
    (embedding): Embedding(10000, 128)
    (embedding_dropout): Dropout(p=0, inplace=False)
    (gru): GRU(128, 256)
    (concat): Linear(in_features=512, out_features=256, bias=True)
    (out): Linear(in_features=256, out_features=10000, bias=True)
    (attn): Attn(
      (attn): Linear(in_features=256, out_features=256, bias=True)
    )
  )
)
-----------------------------------------

-----------------------------------------
2020-02-28 11:32:51,140::INFO
main.py::83
args: Namespace(a=True, dc='/hits/basement/nlp/fatimamh/s2s_summarization/data_config_en_sub', e=False, i=False, mc='/hits/basement/nlp/fatimamh/s2s_summarization/model_config_sub', p=False, t=False)
-----------------------------------------

-----------------------------------------
2020-02-28 11:32:51,144::INFO
main.py::104
device: cuda:0
-----------------------------------------

-----------------------------------------
2020-02-28 11:32:54,358::INFO
main.py::117
Model layers: S2SModel(
  (encoder): Encoder(
    (embedding): Embedding(30000, 128)
    (gru): GRU(128, 256)
    (dropout): Dropout(p=0, inplace=False)
  )
  (decoder): AttentionDecoder(
    (embedding): Embedding(10000, 128)
    (embedding_dropout): Dropout(p=0, inplace=False)
    (gru): GRU(128, 256)
    (concat): Linear(in_features=512, out_features=256, bias=True)
    (out): Linear(in_features=256, out_features=10000, bias=True)
    (attn): Attn(
      (attn): Linear(in_features=256, out_features=256, bias=True)
    )
  )
)
-----------------------------------------

-----------------------------------------
2020-02-28 11:46:16,583::DEBUG
font_manager.py::1259
findfont: Matching :family=sans-serif:style=normal:variant=normal:weight=normal:stretch=normal:size=10.0.
-----------------------------------------

-----------------------------------------
2020-02-28 11:46:16,584::DEBUG
…
